src/chop/nn/snn/modules/sta/premodels/distilled_sqrtinv_8.pth (torch, 1831 bytes, 3 tensors)

approximator.0.weight f4 [8, 1]
00000000: b830 83c1 e143 1fc1 cafa 26c0 e068 2bbe
00000010: c8d7 f03e 1769 83bf 54c7 b8c0 c0c5 1a3f
-16.398788 -9.954072 -2.609057 -0.16739225 0.47039628 -1.0266446 -5.774332 0.6045799

approximator.0.bias f4 [8]
00000000: 60a1 d43e 6301 223f c527 853f ecfe 0dbf
00000010: ae3c 0fbf 91f1 d93f 6f53 6b3f eaa6 7ebf
0.4152937 0.63283366 1.0402762 -0.55467105 -0.55951965 1.7026845 0.91924185 -0.9947344

approximator.2.weight f4 [1, 8]
00000000: b78f 2741 441d 8a40 3b2d 863f c0fb 6ebd
00000010: 0c01 debd 13ac 653f 5a37 f03f 5a02 3f3e
10.472587 4.3160725 1.0482553 -0.058345556 -0.108400434 0.8971569 1.8766892 0.18653241
