src/chop/nn/snn/modules/sta/premodels/distilled_exp_32.pth (torch, 2367 bytes, 3 tensors)

approximator.0.weight f4 [32, 1]
0.11802864 0.5824526 0.3158188 0.92321205 0.75426865 0.70238805 0.73676175 0.8555515
0.9125205 0.89584154 0.232795 0.52348953 0.7263234 0.8027246 0.6810016 0.4434414
0.051371153 0.34314057 0.39626467 0.09639845 1.1942025 0.24092574 0.6669892 0.8215917
0.25129008 0.033675827 0.33377966 1.3457569 0.59781605 0.37273264 0.9536097 0.69378453
00000000: 00b9 f13d 9d1b 153f 00b3 a13e a057 6c3f
00000010: c017 413f b4cf 333f 6b9c 3c3f 6c05 5b3f
00000020: f29a 693f df55 653f d061 6e3e 6903 063f
00000030: 55f0 393f 5c7f 4d3f 1f56 2e3f c00a e33e
00000040: 8f6a 523d 1fb0 af3e 34e3 ca3e 8d6c c53d
00000050: a1db 983f 3db5 763e cebf 2a3f d553 523f
00000060: 18a9 803e aaef 093d 2be5 aa3e c341 ac3f
00000070: 790a 193f d0d6 be3e c41f 743f dd9b 313f

approximator.0.bias f4 [32]
-0.50283957 -0.18191122 -0.720718 0.4308589 -0.6409384 -1.6088908 -1.2143338 -0.41475388
-1.0062733 -1.2668848 -0.7208693 0.32154816 -1.5697651 0.50317055 0.5166446 0.06631808
-0.18116398 0.32430604 0.5875091 0.46070272 0.064942025 0.6326095 -1.1694753 -2.3013349
-0.85278857 0.06646056 0.35290402 -3.4646263 -1.3408107 0.042606257 -1.8734387 -0.49844864
00000000: 18ba 00bf ef46 3abe fa80 38bf 8a99 dc3e
00000010: 8a14 24bf 22f0 cdbf 4a6f 9bbf 9f5a d4be
00000020: 90cd 80bf 4829 a2bf e48a 38bf f6a1 a43e
00000030: 10ee c8bf c9cf 003f d242 043f c6d1 873d
00000040: 0d83 39be 710b a63e ff66 163f 3ae1 eb3e
00000050: 5300 853d b2f2 213f 5eb1 95bf 1249 13c0
00000060: 5a50 5abf 791c 883d d6af b43e 70bc 5dc0
00000070: af9f abbf e683 2e3d d7cc efbf a934 ffbe

approximator.2.weight f4 [1, 32]
-0.055455327 0.34365416 0.5290071 0.08839822 0.5406811 1.413251 1.099039 0.5280213
0.9887207 1.3880237 -0.14441092 0.46099707 1.3614811 -0.077581495 0.11656451 -0.13908792
-0.040557407 0.0827075 0.48461208 0.28405714 0.4491072 0.43656772 1.0014739 2.2141945
0.13643117 0.113978945 0.09327407 3.468032 1.1050457 0.026862592 1.944435 0.45966145
00000000: 2025 63bd 70f3 af3e 026d 073f 200a b53d
00000010: 146a 0a3f 69e5 b43f 4fad 8c3f 672c 073f
00000020: cd1c 7d3f c3aa b13f 75e0 13be cf07 ec3e
00000030: 0345 ae3f 0ce3 9ebd 60b9 ee3d 106d 0ebe
00000040: 861f 26bd 8d62 a93d 131f f83e f06f 913e
00000050: 61f1 e53e ce85 df3e 4c30 803f 5db5 0d40
00000060: 9db4 0b3e cb6d e93d 7a06 bf3d 3cf4 5d40
00000070: 2372 8d3f f00e dc3c 3fe3 f83f bf58 eb3e
