src/chop/nn/snn/modules/sta/premodels/distilled_inv_64.pth (torch, 2793 bytes, 3 tensors)

approximator.0.weight f4 [64, 1]
0	0xbea7d594	-0.32780135
1	0xc0765956	-3.8492026
2	0xbfcdd83e	-1.6081617
3	0xbf8839fc	-1.0642695
4	0xbefe81cc	-0.49708402
5	0xbfd8cb60	-1.6937065
6	0xbc241a6a	-0.010016063
7	0xbf6cb29a	-0.92460024
8	0xc00e41a6	-2.2227569
9	0xbf78bb70	-0.97161007
10	0xbfe2d1e1	-1.77203
11	0xbf15a9c8	-0.5846219
12	0xbf72045a	-0.9453789
13	0xbf8f7a15	-1.1209131
14	0xc03a0f37	-2.9071786
15	0xbc84ba66	-0.016202163
16	0xc02d0802	-2.7036138
17	0xbe90f3d2	-0.2831102
18	0xc0448ad3	-3.0709732
19	0xbf92158b	-1.1412824
20	0xbefcc204	-0.49366772
21	0xbec8e444	-0.39236653
22	0xbf1ec5ce	-0.62020576
23	0xc02ac15c	-2.6680517
24	0xbf9450b6	-1.1587131
25	0xbdc4e990	-0.09614861
26	0xc08fb460	-4.4907684
27	0xc07ec7ce	-3.980945
28	0xc08632f3	-4.1937194
29	0xbf781222	-0.9690267
30	0xbd80386e	-0.06260763
31	0xbf0910de	-0.5354136
32	0xc00a6e47	-2.1629808
33	0xc052f0fa	-3.295958
34	0xbf457eb0	-0.77146435
35	0xbed0b62b	-0.40763983
36	0xbeb32005	-0.34985366
37	0xbdf405fc	-0.11915204
38	0xbfb2e4ec	-1.3976111
39	0xbee3f1e4	-0.44520485
40	0xbf741ee5	-0.9535964
41	0xbf599afa	-0.850021
42	0xbeec6d64	-0.46177208
43	0xbfc2d641	-1.5221635
44	0xbe2a1268	-0.16608584
45	0xc0592fc4	-3.3935404
46	0xbdce9888	-0.10087687
47	0xbf14d9d8	-0.58144903
48	0xbf133446	-0.5750164
49	0xbe4316da	-0.19051686
50	0xc04a24d4	-3.1584978
51	0xc03d8c82	-2.961701
52	0xbf6130dc	-0.8796518
53	0xbf3e0da6	-0.74239576
54	0xbf6e309c	-0.9304292
55	0xbe915518	-0.28385234
56	0xbf2a43aa	-0.665095
57	0xbea80494	-0.32815993
58	0xbd38f3c1	-0.045154337
59	0xbe892610	-0.26786852
60	0xc00c6154	-2.1934404
61	0xbc35a780	-0.011087298
62	0xbdd77f80	-0.105223656
63	0xbf4694de	-0.77570903

approximator.0.bias f4 [64]
0	0xbf6b6652	-0.91953003
1	0xbf275d8d	-0.6537712
2	0x3e9d9ada	0.30782205
3	0xbf212f45	-0.6296275
4	0x3f799842	0.9749795
5	0xbf1ffe07	-0.6249699
6	0x3e091dcc	0.13390273
7	0x3f768f92	0.9631282
8	0x3e24df20	0.1610074
9	0xbecee858	-0.4041164
10	0xbeea05de	-0.457076
11	0x3f0c115e	0.54714
12	0xbe319ee8	-0.17345774
13	0xbe32f216	-0.17475161
14	0x3ea30704	0.3184129
15	0x3f4f6127	0.8100762
16	0xbf1518a7	-0.5824074
17	0x3f0f7225	0.56033546
18	0x3f0e42e1	0.555708
19	0xbe9723ac	-0.29519403
20	0xbf6cb5b4	-0.92464757
21	0x3f394766	0.7237457
22	0x3d334780	0.04376936
23	0x3e51a74c	0.20473975
24	0xbd347413	-0.04405601
25	0xbf4cdcf2	-0.80024636
26	0x3f353b37	0.7079348
27	0x3e31aba3	0.1735063
28	0x3df89647	0.12138038
29	0xbed5c3d8	-0.4175098
30	0x3f05de63	0.5229246
31	0xbeedb670	-0.4642825
32	0xbf48c81e	-0.78430355
33	0xbe959fa1	-0.2922335
34	0x3f61b6e4	0.88169694
35	0x3e7f38e9	0.24924053
36	0x3d0443a4	0.03229107
37	0x3ec2106f	0.37903163
38	0xbed6aa46	-0.41926783
39	0x3d213300	0.039355278
40	0x3ec327c2	0.3811627
41	0xbf5d7690	-0.86509037
42	0x3f28ee8a	0.6598898
43	0x3f153f4e	0.5829972
44	0x3e68d298	0.22736585
45	0x3ee9f67a	0.4569586
46	0xbe35ff9f	-0.17773293
47	0xbe9ad0d8	-0.3023746
48	0xbf5b2ae0	-0.856123
49	0x3f58b4d1	0.84650904
50	0x3f18ac19	0.596376
51	0x3f40188d	0.7503746
52	0x3f3f400c	0.747071
53	0x3e316458	0.17323434
54	0x3f1bdfa0	0.608881
55	0x3e30c430	0.1726234
56	0xbe59fb70	-0.21287322
57	0x3ef6b01c	0.48181236
58	0x3f6479f1	0.8924857
59	0x3e9fcbdc	0.3121022
60	0xbf25ef35	-0.64818126
61	0xbee8a268	-0.45436406
62	0xbf1f9083	-0.6232988
63	0x3eab30d4	0.3343569

approximator.2.weight f4 [1, 64]
0	0xbdd9efac	-0.10641417
1	0xc056b8fe	-3.355041
2	0xbfad0bf8	-1.3519278
3	0xbf5f1d43	-0.87154025
4	0x3c172f70	0.009227619
5	0xbfd3f5e2	-1.6559412
6	0x3e02613b	0.12732403
7	0xbdc13e82	-0.094357505
8	0xbfef37b3	-1.8688873
9	0x3dcf927a	0.1013536
10	0xbfcd5758	-1.604228
11	0x3c8291d8	0.015938684
12	0xbda9776e	-0.082747325
13	0xbf7b2699	-0.9810577
14	0xc027e32b	-2.6232402
15	0x3d743ea8	0.059630066
16	0xc017517f	-2.3643491
17	0x3bb00433	0.0053715943
18	0xc0249629	-2.571665
19	0xbf50b457	-0.81525177
20	0x3c3481b0	0.011017248
21	0x3d8491da	0.064731315
22	0xbc041120	-0.008060724
23	0xc011654b	-2.2718074
24	0xbf8c5f75	-1.0966631
25	0xbc8abca8	-0.016935661
26	0xc0801bff	-4.0034175
27	0xc05b0204	-3.421998
28	0xc0728031	-3.7890742
29	0x3d8420d6	0.064515755
30	0x3ea62940	0.32453346
31	0x3d458ba0	0.04822886
32	0xc0008bd7	-2.0085351
33	0xc04152ad	-3.0206711
34	0xbb5c2040	-0.0033588558
35	0xbbadd166	-0.0053045033
36	0xbe37fa9d	-0.17966695
37	0x3e9bb26c	0.30409563
38	0xbf97650c	-1.1827712
39	0xbde1eaa2	-0.11031081
40	0xbf465498	-0.7747283
41	0xbf635262	-0.8879758
42	0xbdcf96f2	-0.101362124
43	0xbf885aaf	-1.0652674
44	0x3d777588	0.06041482
45	0xc0355443	-2.833268
46	0x3d3ded90	0.046369135
47	0xbd33c43c	-0.043888316
48	0x3ddc254e	0.10749303
49	0x3e985d29	0.29758576
50	0xc034673a	-2.8188004
51	0xc029829b	-2.6485965
52	0xbf461fa8	-0.77392054
53	0x3dd81a1e	0.105518565
54	0x3ca5f908	0.020260349
55	0xbcd38688	-0.025820985
56	0x3ca5b270	0.020226687
57	0xbd9ac5c6	-0.075572535
58	0x3db4e338	0.08832401
59	0x3d54f768	0.051993757
60	0xbfeeb34a	-1.8648465
61	0xbcce0ea8	-0.025153473
62	0xbdfa7bda	-0.12230654
63	0x3dee76cc	0.116437525
