src/chop/nn/snn/modules/sta/premodels/distilled_gelu_64.pth (torch, 2569 bytes, 3 tensors)

approximator.0.weight f4 [64, 1]
0	0x3c2e82ef	0.010651334
1	0x3e209b4a	0.15684238
2	0x3e3c24d8	0.1837343
3	0x3c1ef25b	0.009701337
4	0x3e10abdb	0.14128058
5	0x3e272e11	0.16326167
6	0x3e8f0566	0.27933806
7	0x3ef0aecd	0.47008362
8	0x3df75727	0.1207717
9	0x3e8c4a6a	0.27400523
10	0x3e783987	0.24240695
11	0x3e01cf78	0.126768
12	0x3e07a3f7	0.13246141
13	0x3e0b65da	0.13613072
14	0x3db7b7db	0.089706145
15	0x3ac68203	0.0015144948
16	0x3b8b4a99	0.004250836
17	0x3c650c25	0.013979946
18	0x3e035a30	0.12827373
19	0x3e2a91fa	0.16657248
20	0x3eacfb84	0.3378564
21	0x3e0a1367	0.13483964
22	0x3e16f9ab	0.14743678
23	0x3e4049f6	0.18778214
24	0x3d180b61	0.037120227
25	0x3d89a33e	0.06720589
26	0x3ce05ee8	0.027389005
27	0x3e80920d	0.25111428
28	0x3db701c5	0.089358844
29	0x3e417672	0.1889284
30	0x3ec81b81	0.39083484
31	0x3e545f80	0.20739555
32	0x3db50566	0.0883892
33	0x3e3a956f	0.18221067
34	0x3ea371be	0.31922716
35	0x3ebc1083	0.36731347
36	0x3c41c937	0.0118277585
37	0x3ecdb4d7	0.40177032
38	0x3e98dbdc	0.2985524
39	0x3e50735e	0.20356509
40	0x3bfd93ff	0.00773859
41	0x3e93fbe7	0.28903124
42	0x3e334016	0.17504916
43	0x3be9fa87	0.007140461
44	0x3db775ca	0.08958013
45	0x3e0e0f8b	0.13873117
46	0x3ebed00e	0.37268108
47	0xba2e24fb	-0.0006643084
48	0xbc0b111c	-0.008487966
49	0x3c2cd10a	0.010547886
50	0x3ec90f61	0.39269546
51	0x3d9a367e	0.07529925
52	0x3e28b5c0	0.16475582
53	0x3debabce	0.115073785
54	0x3b054ab5	0.0020338718
55	0x3e1c0e13	0.15239744
56	0x3e7faaa4	0.24967438
57	0xbd2cdebd	-0.042204607
58	0x3e3f5659	0.18685283
59	0x3e404383	0.18775754
60	0x3c157a45	0.00912339
61	0x3e629f1a	0.22131005
62	0x3de12349	0.10993058
63	0x3e0e62b1	0.13904835

approximator.0.bias f4 [64]
0	0x3f48072f	0.7813596
1	0xbdad52fe	-0.08463095
2	0x3f09cce7	0.5382828
3	0xbebc96b9	-0.36833742
4	0xbeb7e850	-0.35919428
5	0xbf11e67f	-0.56992334
6	0x3f1bd949	0.60878426
7	0xbe15bb1f	-0.14622162
8	0xbd467938	-0.048455447
9	0x3f134f3c	0.5754278
10	0x3dbd3477	0.092385225
11	0xbde8bdc9	-0.11364324
12	0x3d9bd86d	0.07609639
13	0xbf79a894	-0.97522855
14	0x3e23cc39	0.15995874
15	0xbcb474d6	-0.022028368
16	0x3ed82839	0.42218187
17	0xbf4c443c	-0.7979162
18	0x3f40a52c	0.7525203
19	0xbe9b9fba	-0.303953
20	0x3ebb22ab	0.36549887
21	0x3e9eb9bb	0.31001076
22	0x3f1b758f	0.60726255
23	0xbf03d3fd	-0.51495343
24	0xbdfe3fe0	-0.12414527
25	0x3e9b7b32	0.30367428
26	0xbf227ca2	-0.63471425
27	0x3e266658	0.16249979
28	0xbd398316	-0.04529103
29	0x3f38a7dd	0.7213114
30	0x3da86577	0.08222478
31	0xbeeeffd3	-0.46679553
32	0x3e97a36d	0.2961687
33	0xbe3a3e41	-0.1818781
34	0x3e1afd42	0.15135673
35	0xbc79b85e	-0.0152417105
36	0x3f2ac991	0.66713816
37	0x3eb1865c	0.3467282
38	0xbeed370f	-0.4633107
39	0xbc5bf924	-0.013426099
40	0xbf80ca1f	-1.0061682
41	0xbe443546	-0.19160947
42	0xbf452464	-0.7700865
43	0x3f3694c4	0.7132075
44	0xbe4467a2	-0.19180158
45	0x3ec36306	0.38161486
46	0xbebdb854	-0.37054694
47	0x3f4d4202	0.80178845
48	0x3f65cc6c	0.8976505
49	0xbf62ccf7	-0.88594
50	0xbe7a6ca7	-0.2445551
51	0x3e51528f	0.2044165
52	0xbd403d58	-0.046933502
53	0xbeb569a3	-0.35432157
54	0x3f329e94	0.6977322
55	0x3f181556	0.59407556
56	0x3c3d72f1	0.011563049
57	0xbf6dc52c	-0.92878985
58	0xbec7c7d5	-0.39019647
59	0xbeae1077	-0.33996937
60	0xbe7f3d9a	-0.24925843
61	0x3f27fc69	0.6561952
62	0x3da47475	0.08030025
63	0xbe9f15a1	-0.3107119

approximator.2.weight f4 [1, 64]
0	0xbbb13653	-0.0054080873
1	0x3dd826ef	0.10554301
2	0xbd2cf9e2	-0.042230494
3	0xbd4715a4	-0.048604622
4	0xbd5baac9	-0.05362967
5	0xbd7acfc1	-0.061233286
6	0xbdabcdd8	-0.08388871
7	0x3ec263cb	0.3796676
8	0x3dbff656	0.09373157
9	0xbd9aa0e1	-0.075502165
10	0x3e816656	0.2527339
11	0x3d4ea03b	0.050445776
12	0x3e0b6ea6	0.13616428
13	0xbb73b94f	-0.003718931
14	0xbc341dd3	-0.010993439
15	0x393cc889	0.00018003782
16	0xbb475728	-0.003041694
17	0xbca8be3a	-0.02059852
18	0xbc4ca54e	-0.012490584
19	0xbcb6a66a	-0.02229615
20	0x3da1f4d8	0.07908028
21	0xbd201417	-0.03908166
22	0xbcb02ac9	-0.021504777
23	0xbd9ca256	-0.076481506
24	0xbc6d3d9f	-0.014480024
25	0xbc3838c3	-0.011244002
26	0x3d95fb80	0.073233604
27	0x3e645dd4	0.22301418
28	0x3d7dcacd	0.061960984
29	0xbcf18d18	-0.029486224
30	0x3ecc9910	0.39960527
31	0xbd99ebd3	-0.07515683
32	0xbc8731c2	-0.016503219
33	0x3d6caf12	0.057784148
34	0x3eab63b1	0.33474496
35	0x3eba8e5f	0.36436746
36	0xbbc31b12	-0.0059541548
37	0x3e238269	0.15967716
38	0x3b6294ad	0.003457348
39	0x3e4dcdad	0.2009799
40	0x3ce55d82	0.02799869
41	0x3e3e06b5	0.18557246
42	0xbd36dcbc	-0.044644102
43	0x3d03a789	0.032142196
44	0xbd068b97	-0.032847967
45	0xbd0c61cd	-0.034272958
46	0x3df2f9f5	0.11864082
47	0x39988c8c	0.00029096415
48	0x3c367749	0.011136838
49	0x3cd52a0f	0.026021032
50	0x3e821369	0.25405434
51	0xbc9cbe5c	-0.01913374
52	0x3e0908af	0.13382219
53	0xbd4b68ac	-0.04966037
54	0x3b279aca	0.002557444
55	0xbcb95a31	-0.022626014
56	0x3e802063	0.2502471
57	0xbc0739dd	-0.008253542
58	0xbd7e5147	-0.06208923
59	0xbcbc6f77	-0.02300237
60	0xbc0cbbbb	-0.00858968
61	0xbd5019fb	-0.050806027
62	0x3d885a81	0.06657887
63	0xbd4ebe5a	-0.050474502
